GACNet(
  (sa1): GraphAttentionConvLayer(
    (mlp_convs): ModuleList(
      (0): Conv2d(9, 32, kernel_size=(1, 1), stride=(1, 1))
      (1): Conv2d(32, 32, kernel_size=(1, 1), stride=(1, 1))
      (2): Conv2d(32, 64, kernel_size=(1, 1), stride=(1, 1))
    )
    (mlp_bns): ModuleList(
      (0): BatchNorm2d(32, eps=1e-05, momentum=0.1, affine=True, track_running_stats=True)
      (1): BatchNorm2d(32, eps=1e-05, momentum=0.1, affine=True, track_running_stats=True)
      (2): BatchNorm2d(64, eps=1e-05, momentum=0.1, affine=True, track_running_stats=True)
    )
    (GAT): GraphAttention(
      (leakyrelu): LeakyReLU(negative_slope=0.2)
    )
  )
  (sa2): GraphAttentionConvLayer(
    (mlp_convs): ModuleList(
      (0): Conv2d(67, 64, kernel_size=(1, 1), stride=(1, 1))
      (1): Conv2d(64, 64, kernel_size=(1, 1), stride=(1, 1))
      (2): Conv2d(64, 128, kernel_size=(1, 1), stride=(1, 1))
    )
    (mlp_bns): ModuleList(
      (0): BatchNorm2d(64, eps=1e-05, momentum=0.1, affine=True, track_running_stats=True)
      (1): BatchNorm2d(64, eps=1e-05, momentum=0.1, affine=True, track_running_stats=True)
      (2): BatchNorm2d(128, eps=1e-05, momentum=0.1, affine=True, track_running_stats=True)
    )
    (GAT): GraphAttention(
      (leakyrelu): LeakyReLU(negative_slope=0.2)
    )
  )
  (sa3): GraphAttentionConvLayer(
    (mlp_convs): ModuleList(
      (0): Conv2d(131, 128, kernel_size=(1, 1), stride=(1, 1))
      (1): Conv2d(128, 128, kernel_size=(1, 1), stride=(1, 1))
      (2): Conv2d(128, 256, kernel_size=(1, 1), stride=(1, 1))
    )
    (mlp_bns): ModuleList(
      (0): BatchNorm2d(128, eps=1e-05, momentum=0.1, affine=True, track_running_stats=True)
      (1): BatchNorm2d(128, eps=1e-05, momentum=0.1, affine=True, track_running_stats=True)
      (2): BatchNorm2d(256, eps=1e-05, momentum=0.1, affine=True, track_running_stats=True)
    )
    (GAT): GraphAttention(
      (leakyrelu): LeakyReLU(negative_slope=0.2)
    )
  )
  (sa4): GraphAttentionConvLayer(
    (mlp_convs): ModuleList(
      (0): Conv2d(259, 256, kernel_size=(1, 1), stride=(1, 1))
      (1): Conv2d(256, 256, kernel_size=(1, 1), stride=(1, 1))
      (2): Conv2d(256, 512, kernel_size=(1, 1), stride=(1, 1))
    )
    (mlp_bns): ModuleList(
      (0): BatchNorm2d(256, eps=1e-05, momentum=0.1, affine=True, track_running_stats=True)
      (1): BatchNorm2d(256, eps=1e-05, momentum=0.1, affine=True, track_running_stats=True)
      (2): BatchNorm2d(512, eps=1e-05, momentum=0.1, affine=True, track_running_stats=True)
    )
    (GAT): GraphAttention(
      (leakyrelu): LeakyReLU(negative_slope=0.2)
    )
  )
  (fp4): PointNetFeaturePropagation(
    (mlp_convs): ModuleList(
      (0): Conv1d(768, 256, kernel_size=(1,), stride=(1,))
      (1): Conv1d(256, 256, kernel_size=(1,), stride=(1,))
    )
    (mlp_bns): ModuleList(
      (0): BatchNorm1d(256, eps=1e-05, momentum=0.1, affine=True, track_running_stats=True)
      (1): BatchNorm1d(256, eps=1e-05, momentum=0.1, affine=True, track_running_stats=True)
    )
  )
  (fp3): PointNetFeaturePropagation(
    (mlp_convs): ModuleList(
      (0): Conv1d(384, 256, kernel_size=(1,), stride=(1,))
      (1): Conv1d(256, 256, kernel_size=(1,), stride=(1,))
    )
    (mlp_bns): ModuleList(
      (0): BatchNorm1d(256, eps=1e-05, momentum=0.1, affine=True, track_running_stats=True)
      (1): BatchNorm1d(256, eps=1e-05, momentum=0.1, affine=True, track_running_stats=True)
    )
  )
  (fp2): PointNetFeaturePropagation(
    (mlp_convs): ModuleList(
      (0): Conv1d(320, 256, kernel_size=(1,), stride=(1,))
      (1): Conv1d(256, 128, kernel_size=(1,), stride=(1,))
    )
    (mlp_bns): ModuleList(
      (0): BatchNorm1d(256, eps=1e-05, momentum=0.1, affine=True, track_running_stats=True)
      (1): BatchNorm1d(128, eps=1e-05, momentum=0.1, affine=True, track_running_stats=True)
    )
  )
  (fp1): PointNetFeaturePropagation(
    (mlp_convs): ModuleList(
      (0): Conv1d(128, 128, kernel_size=(1,), stride=(1,))
      (1): Conv1d(128, 128, kernel_size=(1,), stride=(1,))
      (2): Conv1d(128, 128, kernel_size=(1,), stride=(1,))
    )
    (mlp_bns): ModuleList(
      (0): BatchNorm1d(128, eps=1e-05, momentum=0.1, affine=True, track_running_stats=True)
      (1): BatchNorm1d(128, eps=1e-05, momentum=0.1, affine=True, track_running_stats=True)
      (2): BatchNorm1d(128, eps=1e-05, momentum=0.1, affine=True, track_running_stats=True)
    )
  )
  (conv1): Conv1d(128, 128, kernel_size=(1,), stride=(1,))
  (bn1): BatchNorm1d(128, eps=1e-05, momentum=0.1, affine=True, track_running_stats=True)
  (drop1): Dropout(p=0, inplace=False)
  (conv2): Conv1d(128, 13, kernel_size=(1,), stride=(1,))
)